…
________________________________________________\n","concatenate_11 (Concatenate)    (None, 25, 25, 15, 1 0           conv3d_43[0][0]                  \n","                                                                 conv3d_45[0][0]                  \n","                                                                 conv3d_47[0][0]                  \n","                                                                 conv3d_48[0][0]                  \n","__________________________________________________________________________________________________\n","reshape_4 (Reshape)             (None, 25, 25, 1920) 0           concatenate_11[0][0]             \n","__________________________________________________________________________________________________\n","conv2d_20 (Conv2D)              (None, 25, 25, 64)   122944      reshape_4[0][0]                  \n","__________________________________________________________________________________________________\n","conv2d_22 (Conv2D)              (None, 25, 25, 16)   30736       reshape_4[0][0]                  \n","__________________________________________________________________________________________________\n","max_pooling2d_4 (MaxPooling2D)  (None, 25, 25, 1920) 0           reshape_4[0][0]                  \n","__________________________________________________________________________________________________\n","conv2d_19 (Conv2D)              (None, 25, 25, 64)   122944      reshape_4[0][0]                  \n","__________________________________________________________________________________________________\n","conv2d_21 (Conv2D)              (None, 25, 25, 96)   24672       conv2d_20[0][0]                  \n","__________________________________________________________________________________________________\n","conv2d_23 (Conv2D)              (None, 25, 25, 48)   6960        conv2d_22[0][0]                  \n","__________________________________________________________________________________________________\n","conv2d_24 (Conv2D)              (None, 25, 25, 32)   61472       max_pooling2d_4[0][0]            \n","__________________________________________________________________________________________________\n","concatenate_12 (Concatenate)    (None, 25, 25, 240)  0           conv2d_19[0][0]                  \n","                                                                 conv2d_21[0][0]                  \n","                                                                 conv2d_23[0][0]                  \n","                                                                 conv2d_24[0][0]                  \n","__________________________________________________________________________________________________\n","flatten_4 (Flatten)             (None, 150000)       0           concatenate_12[0][0]             \n","__________________________________________________________________________________________________\n","dense_10 (Dense)                (None, 256)          38400256    flatten_4[0][0]                  \n","__________________________________________________________________________________________________\n","dropout_7 (Dropout)             (None, 256)          0           dense_10[0][0]                   \n","__________________________________________________________________________________________________\n","dense_11 (Dense)                (None, 128)          32896       dropout_7[0][0]                  \n","__________________________________________________________________________________________________\n","dropout_8 (Dropout)             (None, 128)          0           dense_11[0][0]                   \n","__________________________________________________________________________________________________\n","dense_12 (Dense)                (None, 9)            1161        dropout_8[0][0]                  \n","==================================================================================================\n","Total params: 38,995,233\n","Trainable params: 38,995,233\n","Non-trainable params: 0\n","__________________________________________________________________________________________________\n"],"name":"stdout"}]},{"cell_type":"code","metadata":{"id":"M
…
